…
incarnation: 11306850669337430109
xla_global_id: -1
, name: "/device:GPU:0"
device_type: "GPU"
memory_limit: 4162256896
locality {
  bus_id: 1
  links {
  }
}
incarnation: 17962852762593418302
physical_device_desc: "device: 0, name: NVIDIA GeForce RTX 2060, pci bus id: 0000:06:00.0, compute capability: 7.5"
xla_global_id: 416903419
]
[20]
[1048576]
Model: "sequential_4"
_________________________________________________________________
 Layer (type)                Output Shape              Param #   
=================================================================
 modulator (Lambda)          (None, 16)                0         
                                                                 
 noise (Lambda)              (None, 16)                0         
                                                                 
 decoder_0 (Dense)           (None, 512)               8704      
                                                                 
 decoder_1 (Dense)           (None, 256)               131328    
                                                                 
 decoder_2 (Dense)           (None, 128)               32896     
                                                                 
 decoder_3 (Dense)           (None, 64)                8256      
                                                                 
 decoder_4 (Dense)           (None, 32)                2080      
                                                                 
 decoder_5 (Dense)           (None, 8)                 264       
                                                                 
=================================================================
Total params: 183,528
Trainable params: 183,528
Non-trainable params: 0
_________________________________________________________________
2022-06-16 19:49:22.746259	polar @ Adadelta @ Mep=2^20 fit started.
2022-06-16 21:15:51.872973	polar @ Adadelta @ Mep=2^20 fit finished (took 5189.127 [s]).
…
