…
incarnation: 16913694710380286151
xla_global_id: -1
, name: "/device:GPU:0"
device_type: "GPU"
memory_limit: 22683648000
locality {
  bus_id: 1
  links {
  }
}
incarnation: 11296097755452001395
physical_device_desc: "device: 0, name: NVIDIA GeForce RTX 3090, pci bus id: 0000:09:00.0, compute capability: 8.6"
xla_global_id: 416903419
]
[20]
[1048576]
Model: "sequential_4"
_________________________________________________________________
 Layer (type)                Output Shape              Param #   
=================================================================
 modulator (Lambda)          (None, 16)                0         
                                                                 
 noise (Lambda)              (None, 16)                0         
                                                                 
 decoder_0 (Dense)           (None, 256)               4352      
                                                                 
 decoder_1 (Dense)           (None, 128)               32896     
                                                                 
 decoder_2 (Dense)           (None, 64)                8256      
                                                                 
 decoder_3 (Dense)           (None, 32)                2080      
                                                                 
 decoder_4 (Dense)           (None, 8)                 264       
                                                                 
=================================================================
Total params: 47,848
Trainable params: 47,848
Non-trainable params: 0
_________________________________________________________________
2022-06-20 16:03:08.170401	polar @ Adadelta @ Mep=2^20 fit started.
2022-06-20 17:02:07.991051	polar @ Adadelta @ Mep=2^20 fit finished (took 3539.826 [s]).
…
